model-exchange_rate.txt-3.pt (torch, 582874 bytes, 22 tensors)

weight f4 [64, 168]
0	0xbcb0af5e	-0.021567997
1	0xbd910e55	-0.07082812
2	0xbd57043c	-0.052494273
3	0xbd64651c	-0.055760488
4	0x3d98ee11	0.074672826
5	0x3cd59f28	0.026076868
6	0x3d958f19	0.07302684
7	0xbd3787c5	-0.044807214
8	0x3c637ac8	0.013884254
9	0xbd006d19	-0.031354044
10	0xbd908f5d	-0.070585944
11	0xbc3e4a38	-0.011614375
12	0x3d87d7d1	0.066329606
13	0x3d70b30e	0.05876451
14	0x3b9c4fd0	0.0047702566
15	0xbd1b9a20	-0.037988782
16	0xbd5f377e	-0.05449628
17	0x3d0d07cc	0.034431264
18	0xbcdab438	-0.026697263
19	0xbcf2ec70	-0.029653758
20	0x3c6131c8	0.013744779
21	0xbc424350	-0.011856869
22	0xbd5c2d22	-0.05375398
23	0x3d44b7de	0.048026912
24	0xbc3eda50	-0.011648729
25	0xbd4af10e	-0.049546294
26	0x3d6c3986	0.057672046
27	0xbc81b672	-0.015834067
28	0xbd2df429	-0.042469177
29	0x3d92cdfd	0.071681954
30	0xbd20cd3c	-0.039258227
31	0x3abaa180	0.0014238805
32	0x3d6476c2	0.05577732
33	0xbc9ea5ea	-0.019366223
34	0x3c843364	0.016137786
35	0xbd1f659a	-0.038915254
36	0x3c31bf38	0.010848813
37	0xbcc51da8	-0.024061993
38	0x3c1a86a0	0.009431511
39	0x3d6d8b26	0.05799403
40	0xbd8a48ef	-0.06752192
41	0xbbed2fb0	-0.007238351
42	0x3d166bc0	0.036723852
43	0xbd7d96db	-0.061911445
44	0xbd681e7c	-0.056669697
45	0x3d3c2986	0.045938037
46	0xbc06e008	-0.008232124
47	0x3d9a2e1b	0.07528325
48	0xbd1c3cb2	-0.03814382
49	0xbd3d4ac2	-0.046213873
50	0x3d9a5d65	0.07537345
51	0xbc283198	-0.01026573
52	0xbce08934	-0.027409174
53	0x3cc10c30	0.023565382
54	0x3d23f8a8	0.04003206
55	0x3c80e168	0.015732482
56	0xbcae37be	-0.021266814
57	0x3b916920	0.0044375807
58	0x3d0bf790	0.03417164
59	0x3cc4525c	0.023965053
60	0x3bc720f0	0.0060769245
61	0xbccf0828	-0.025272444
62	0x3c4337d0	0.011915162
63	0x3d0bb232	0.034105487
64	0xbd86a1ee	-0.065738544
65	0x3d0c77be	0.034293883
66	0xbc8fd30a	-0.017556686
67	0x3d490b32	0.049082942
68	0x3c931db0	0.017958492
69	0x3ca9da6c	0.020734034
70	0x3bf7eb00	0.007565856
71	0xbd8a1a90	-0.06743348
72	0xbbc99580	-0.006151855
73	0x3a264600	0.0006342828
74	0xbc7da7fc	-0.015481945
75	0x3d41a600	0.04727745
76	0xbbb9e7b0	-0.0056733713
77	0x3d6230ee	0.055222444
78	0x3d4881d2	0.04895193
79	0xbd9201f5	-0.071292795
80	0xbcdada8c	-0.02671554
81	0x3d07038a	0.03296236
82	0x3af1bd80	0.0018443316
83	0x3d85e145	0.065371074
84	0x3d16e474	0.036838964
85	0x3d883f41	0.0665269
86	0x3cc69b68	0.024244025
87	0x3d9227ff	0.07136535
88	0x3d12814e	0.035767846
89	0xbd57c45c	-0.052677497
90	0xbd84357f	-0.06455516
91	0xbc920968	-0.01782675
92	0x3d62b992	0.055352755
93	0xbc953b82	-0.018216852
94	0x3d89d017	0.06729143
95	0xbd183fa6	-0.037170075
96	0x3d34b590	0.044118464
97	0x3c87ac1c	0.01656156
98	0xbc92ba4c	-0.017911099
99	0xbd4b0aba	-0.049570777
100	0x3c51b5a0	0.01279965
101	0xbd418488	-0.047245532
102	0x3d282f44	0.0410607
103	0x3ca8dcc4	0.020613082
104	0x3cec03b8	0.028810367
105	0xbc7d300c	-0.01545335
106	0xbcda386e	-0.026638236
107	0x3d80a5d7	0.062816314
108	0x3d20ae52	0.039228745
109	0xbd3628ca	-0.044472493
110	0x3cb8d130	0.022560686
111	0x3c8475c0	0.016169429
112	0xbc9b7124	-0.018974848
113	0x3d5d7452	0.05406601
114	0x3d0e73c2	0.034778364
115	0x3cc13668	0.023585513
116	0xbd6bfd52	-0.057614632
117	0xbcccdcb8	-0.02500759
118	0xbc702d08	-0.014659174
119	0x3b45d5e0	0.0030187294
120	0x3ca9e8c0	0.020740867
121	0x3cbff054	0.023430027
122	0x3d9d6a63	0.07686307
123	0x3d3a14d0	0.045430005
124	0xbd4dbbba	-0.050227858
125	0xbd0c7af6	-0.034296952
126	0x3bd4d060	0.006494567
127	0x3d60aa3e	0.054849856
128	0xbd49020a	-0.04907421
129	0x3bef3cb0	0.0073009357
130	0x3ceaf56c	0.02868148
131	0xbd844631	-0.064587004
132	0x3d6bbdfe	0.057554238
133	0xbcc471e0	-0.023980081
134	0x3d0b72dc	0.034045085
135	0xbb954b40	-0.0045560896
136	0x3d88f91f	0.06688141
137	0x3d25b748	0.040457994
138	0xbd73117b	-0.059342843
139	0x3cc5b53c	0.02413427
140	0x3cedcb1c	0.029027514
141	0x3d2974aa	0.041371025
142	0x3d8fdcad	0.070245124
143	0x3cd0f258	0.025506184
144	0xbd06b141	-0.032883886
145	0xbd94ce1d	-0.072658755
146	0x3d29aeca	0.041426457
147	0xbb3f1580	-0.0029157102
148	0xbc7aa9dc	-0.015299287
149	0xbcb3ddc2	-0.021956328
150	0x3d280f54	0.041030243
151	0x3d2f4694	0.042791918
152	0xbcf9b61c	-0.030482344
153	0xbcd59656	-0.026072662
154	0x3b0112a0	0.001969494
155	0x3d1301b6	0.035890304
156	0x3d081420	0.033222318
157	0x3d97e727	0.07417136
158	0xbd27ce8e	-0.04096847
159	0x3d687ff6	0.056762658
160	0x3c541218	0.012943767
161	0xbd91e71a	-0.07124157
162	0xbd37f4ac	-0.04491107
163	0x3d50ebc2	0.051006086
164	0xbd6a2a02	-0.057168968
165	0x3d102948	0.03519562
166	0xbd43fac6	-0.047846578
167	0xbbe70930	-0.007050656
168	0xbd79c598	-0.060979456
169	0x3d2caa0e	0.042154364
170	0x3d3a9afa	0.045557953
171	0x3d376a02	0.04477883
172	0x3d9634f5	0.073343195
173	0xba478780	-0.00076114386
174	0xbd206d53	-0.03916676
175	0x3d08e08a	0.033417262
176	0xbd2088a0	-0.039192796
177	0x3d36da24	0.04464163
178	0x3ca6f440	0.02038014
179	0x3d5b738a	0.053576984
180	0x3d87dd5f	0.0663402
181	0xbd4e384a	-0.05034665
182	0xbcdf0cfa	-0.027227867
183	0xbd0bee4e	-0.034162812
184	0xbd85fd48	-0.0654245
185	0x3cc41524	0.023935862
186	0x3ca3eb3c	0.02000963
187	0x3b871490	0.0041223243
188	0x3d7e5972	0.06209702
189	0xbd856c70	-0.065148234
190	0x3c395070	0.011310682
191	0xbbb52750	-0.005528368
192	0x3c2164f0	0.0098507255
193	0x3c467520	0.012112886
194	0xbcb24684	-0.02176214
195	0x3d63f0aa	0.055649437
196	0xbc9c9f22	-0.01911885
197	0x3ae44600	0.0017415881
198	0xbc3ef0e8	-0.011654116
199	0x3c469a10	0.012121692
200	0x3c900430	0.017580122
201	0xbd503900	-0.05083561
202	0xbd18fa18	-0.037347883
203	0x3d1459fc	0.03621863
204	0xbd66f146	-0.05638244
205	0x3cba9770	0.02277729
206	0x3c5e5880	0.013570905
207	0xbd418a54	-0.04725106
208	0xbd917387	-0.07102113
209	0x3d97c4ff	0.07410621
210	0x3c659ed8	0.014014922
211	0xbc60a180	-0.01371038
212	0x3c61d8f0	0.013784632
213	0xbceb9c78	-0.028761134
214	0xbd2e7025	-0.042587418
215	0xbcf338dc	-0.029690199
216	0xbcddbe0c	-0.02706816
217	0xbc16b690	-0.0091988
218	0xbb323420	-0.0027191713
219	0x3d2d5fee	0.042327814
220	0xbb506ea0	-0.003180422
221	0x3c4721d0	0.012154058
222	0x3c6936f8	0.014234297
223	0xbb840e30	-0.0040300116
224	0x3ceec8fc	0.029148571
225	0xbd8a069c	-0.06739542
226	0x3d7b4ffa	0.06135557
227	0xbd00c152	-0.031434365
228	0x3d8f8887	0.070084624
229	0x3c91e6f0	0.017810315
230	0xbc4dd4a0	-0.012562901
231	0x3d44487a	0.04792068
232	0xbafcc380	-0.0019284338
233	0x3c4c07d0	0.0124530345
234	0xbd6f886a	-0.058479704
235	0x3d964f2d	0.0733932
236	0xbd92de0c	-0.07171258
237	0x3a639f80	0.000868313
238	0x3ccf5774	0.025310256
239	0x3c8b2f68	0.016990378
240	0xbd86a455	-0.065743126
241	0xba30f080	-0.00067497045
242	0xbd20a8b4	-0.039223388
243	0xbb60e360	-0.0034315214
244	0xbb830300	-0.0039981604
245	0x3cf4571c	0.029826693
246	0x3d211ce4	0.039334193
247	0x3cd13f8c	0.025542997
248	0xbd933c12	-0.07189192
249	0xbd822f13	-0.06356635
250	0xbc9c9844	-0.019115575
251	0xbd94ac23	-0.07259395
252	0x3d2b313a	0.041794993
253	0xbc1650c8	-0.009174533
254	0xbcf5b2da	-0.02999251
255	0xbd7e1959	-0.062035892

bias f4 [64]
0	0xbd8a3761	-0.06748844
1	0x3c22e5d8	0.009942494
2	0xbd4c4df2	-0.049879022
3	0xbd3ead5e	-0.046552055
4	0xbd394649	-0.045233045
5	0x3d3b195c	0.04567848
6	0x3aa73a80	0.0012758523
7	0x3d91a0f1	0.07110775
8	0xbc0374e0	-0.008023471
9	0x3d8a04e9	0.06739218
10	0x3d401906	0.046898864
11	0x3d890231	0.06689871
12	0xbd23a42d	-0.039951492
13	0x3d338d48	0.04383591
14	0x3cd7bb6c	0.026334487
15	0xbd0136b7	-0.03154632
16	0xbcbf8682	-0.023379568
17	0xbd861b1f	-0.06548142
18	0x3cf71e18	0.030165717
19	0xbd0d8462	-0.03455008
20	0x3b9f6ff0	0.004865639
21	0x3d2232e2	0.039599307
22	0xbcd1ba92	-0.025601659
23	0xbd99e8e9	-0.07515127
24	0x3b5fa3a0	0.0034124628
25	0xbd027656	-0.031851135
26	0x3ca38990	0.019963056
27	0xbd50a096	-0.050934397
28	0xbca6a59e	-0.020342644
29	0x3d2174ac	0.039417908
30	0x3d302404	0.043003097
31	0xbd7f21e4	-0.06228818
32	0x3d81c3f3	0.063362025
33	0xbd6869d0	-0.056741536
34	0x3c9fa938	0.01948987
35	0xbd546402	-0.051853187
36	0x3d7b8af2	0.061411805
37	0x3d8e3eaf	0.0694555
38	0x3d86b6c7	0.06577831
39	0x3d1a72b8	0.03770706
40	0x3d781d42	0.060574777
41	0x3cd99808	0.026561752
42	0xbd06e89d	-0.03293668
43	0xbcb30af6	-0.021855813
44	0xbcf6909a	-0.030098248
45	0x3d2769e6	0.040872477
46	0x3c2cc9e0	0.010546178
47	0x3b7aa6a0	0.003824629
48	0xbd769049	-0.060196195
49	0xbd979425	-0.07401303
50	0x3d97b7af	0.07408082
51	0xbd806505	-0.06269268
52	0x3d9b7887	0.07591348
53	0x3cabb528	0.020960405
54	0xbd88c1ea	-0.06677611
55	0xbd78dfc8	-0.06076029
56	0xbd931fd9	-0.07183809
57	0x3d3f11f4	0.04664798
58	0x3d58fb82	0.05297423
59	0xbc470910	-0.012148157
60	0x392e0400	0.00016595423
61	0x3d8a9d59	0.06768293
62	0x3bb66bd0	0.0055670515
63	0xbcf65d6a	-0.03007384

weight f4 [168, 16]
0	0x3dd6f310	0.10495579
1	0xbe119cf8	-0.14220035
2	0xbd994b68	-0.07485086
3	0x3c37a180	0.011207938
4	0xbe691634	-0.22762376
5	0xbdb89dfc	-0.09014508
6	0x3e0e7654	0.13912326
7	0x3c3d4260	0.01155147
8	0x3e493488	0.19648945
9	0x3e12ed76	0.14348397
10	0x3e0db676	0.13839135
11	0x3e1a9fbe	0.151
12	0x3e767876	0.2406939
13	0xbe280fe4	-0.16412312
14	0xbc08af00	-0.0083425045
15	0x3df0b3e8	0.117530644
16	0xbe66ff76	-0.22558388
17	0x3d8885bc	0.06666133
18	0x3e141ff2	0.14465311
19	0xbda04684	-0.0782595
20	0x3e6c5816	0.23080477
21	0x3e3f8ff4	0.18707258
22	0x3e4aded8	0.1981157
23	0xbd80ea20	-0.06294656
24	0xbd996b84	-0.0749121
25	0xbe38da9e	-0.18052146
26	0x3dbed888	0.09318644
27	0xbdbbcce0	-0.09169936
28	0x3d92df04	0.07171443
29	0xbe727588	-0.23677647
30	0x3e735f9a	0.23766938
31	0xbd182c98	-0.037151903
32	0xbdcbe3f0	-0.09955585
33	0x3d921f04	0.07134822
34	0xbd60bff0	-0.054870546
35	0xbcc3a9c0	-0.023884654
36	0xbe3c5ac8	-0.18394005
37	0x3ca4dcf0	0.020124882
38	0x3da7f50c	0.08201036
39	0x3c9b7ff0	0.018981904
40	0xbe599aae	-0.21250412
41	0x3e3343a0	0.17506266
42	0xbe460ea0	-0.19341516
43	0xbd365bb8	-0.044521064
44	0x3dbc64c8	0.0919891
45	0x3e733906	0.23752221
46	0x3e219884	0.15780836
47	0x3d0ea5e0	0.03482616
48	0x3e218ee8	0.1577717
49	0xbd270b40	-0.040782213
50	0x3d3cb448	0.046070367
51	0xbe1f7186	-0.1557065
52	0x3e12d5cc	0.1433937
53	0x3e371478	0.17878902
54	0x3d42e1c0	0.047578573
55	0xbd0dcdd8	-0.034620136
56	0xbd008f40	-0.031386614
57	0xbd307ed0	-0.043089688
58	0xbcea0660	-0.028567493
59	0x3d92b948	0.07164246
60	0x3e5d81ae	0.216315
61	0x3e3fa240	0.18714237
62	0xbd8f01fc	-0.069828
63	0x3cee48d0	0.029087454
64	0xbe2c9536	-0.16853794
65	0xbe1077d0	-0.14108205
66	0xbdba9394	-0.091101795
67	0x3dd2b860	0.10289073
68	0x3de7f558	0.113260925
69	0x3e5dae8c	0.21648616
70	0xbe2ec330	-0.17066646
71	0x3dd51970	0.104052424
72	0x3d91b70c	0.071149915
73	0xbe1a0a48	-0.15042984
74	0x3e30dac6	0.17270955
75	0xbe6bdcaa	-0.23033395
76	0xbe4d5e72	-0.2005556
77	0xbdda1e5c	-0.10650322
78	0x3e5e814e	0.21729013
79	0xbdba631c	-0.09100935
80	0xbdd54460	-0.10413432
81	0xbe61d2b2	-0.2205303
82	0x3daac604	0.0833855
83	0xbd3cb3e8	-0.04607001
84	0x3e19ee9e	0.15032431
85	0x3e643a8e	0.22287962
86	0xbdce8b60	-0.100851774
87	0x3e4b169e	0.19832847
88	0x3e440e34	0.19146043
89	0x3e660814	0.22464019
90	0xbe2d9b24	-0.16953713
91	0xbd4b05e0	-0.04956615
92	0x3e79cb62	0.2439399
93	0xbd1e0918	-0.03858289
94	0x3e4260bc	0.18982214
95	0xbdd019d0	-0.10161173
96	0xbe6d7fbe	-0.23193261
97	0x3d1c9af8	0.038233727
98	0x3caa4c40	0.020788312
99	0xbe484fdc	-0.19561714
100	0x3dcd91c8	0.10037571
101	0x3df82768	0.12116891
102	0xbe52be68	-0.20580447
103	0xbdbaa918	-0.09114283
104	0xbe383e92	-0.17992619
105	0xbe31c5c0	-0.17360592
106	0xbd5f4678	-0.054510564
107	0xbe2888fa	-0.16458502
108	0x3e68a5a2	0.22719434
109	0x3e6b5a12	0.22983578
110	0xbdb3aaa8	-0.087727845
111	0x3e478cce	0.19487306
112	0x3d369d90	0.044583857
113	0xbdc797dc	-0.09745762
114	0xbdffe2ac	-0.12494406
115	0x3e6486ee	0.22317097
116	0x3e487896	0.1957725
117	0xbe68e04c	-0.22741812
118	0xbdccf034	-0.100067526
119	0x3e41bd4a	0.18919864
120	0xbe70c380	-0.23512077
121	0xbe15e378	-0.14637554
122	0x3e610cee	0.21977589
123	0xbdcda704	-0.10041621
124	0xbe5c9624	-0.21541649
125	0x3e4e017e	0.20117757
126	0x3e5b85da	0.21437779
127	0x3d510d20	0.051037908
128	0x3d137310	0.035998404
129	0x3cfc2790	0.030780584
130	0x3d3ed0e8	0.046585947
131	0x3e2fb13a	0.1715745
132	0x3e4ceed0	0.20012975
133	0xbe621378	-0.22077739
134	0x3ab21e00	0.0013589263
135	0x3e340b22	0.17582372
136	0x3e7119b8	0.23544967
137	0x3dbe2a9c	0.09285471
138	0xbd8972b8	-0.06711334
139	0x3e07a8aa	0.13247934
140	0x3e6e1ee8	0.23253977
141	0x3e0f7186	0.1400815
142	0xbe1dd44c	-0.15413016
143	0xbcab3c40	-0.020902753
144	0xbd896b60	-0.06709933
145	0x3e38d638	0.18050468
146	0xbdaf0754	-0.085463196
147	0xbe5a1ba8	-0.21299613
148	0x3e261a9e	0.16221091
149	0x3e4305e6	0.19045219
150	0x3e37e1c4	0.17957217
151	0x3e22494e	0.15848276
152	0x3e3889a4	0.18021256
153	0x3e2ee95a	0.17081204
154	0x3bdfa400	0.0068249702
155	0xbe1c725a	-0.15277997
156	0xbe45f83c	-0.19332975
157	0x3e27ee38	0.16399467
158	0xbe01b000	-0.12664795
159	0xbdda12f0	-0.10648143
160	0x3e29772e	0.1654937
161	0x3dc6a868	0.0970009
162	0xbd416d80	-0.047223568
163	0xbe00328c	-0.12519282
164	0xbe7b3408	-0.24531567
165	0xbe0cbe46	-0.13744459
166	0xbe45d8fc	-0.19321054
167	0x3e745726	0.2386137
168	0x3e319126	0.17340526
169	0x3d81ff34	0.06347504
170	0xbdcf9f5c	-0.10137817
171	0xbe2374c8	-0.15962517
172	0xbdb13c40	-0.0865407
173	0x3dceeed0	0.101041436
174	0x3cd15ec0	0.025557876
175	0x3e257834	0.16159135
176	0x3d95d3d8	0.073157966
177	0x3e1bbad8	0.15207994
178	0x3e3b1444	0.1826945
179	0x3dab55dc	0.08365986
180	0xbdae449c	-0.0850918
181	0x3e216f7c	0.15765184
182	0xbe6550de	-0.2239413
183	0x3e03a80e	0.12857077
184	0x3e0fd512	0.14046124
185	0x3e7deb7c	0.24796861
186	0x3bf08f00	0.0073412657
187	0xbe3203bc	-0.17384237
188	0x3ddaf90c	0.10692033
189	0x3e293a74	0.16526204
190	0x3dfff3f0	0.12497699
191	0x3dc44e2c	0.095852226
192	0x3e1d970c	0.15389651
193	0x3da98a48	0.08278328
194	0x3defb704	0.11704829
195	0x3e263966	0.16232833
196	0xbdcf10d8	-0.101106346
197	0x3ccc93d0	0.024972826
198	0x3e481f52	0.19543198
199	0x3ddb05d4	0.10694471
200	0xbe614ca4	-0.22001892
201	0x3d781fd0	0.060577214
202	0x3e298f54	0.16558582
203	0x3e6b765a	0.22994366
204	0x3e7e4948	0.24832642
205	0x3d92d01c	0.071686
206	0xbd6a85f0	-0.05725664
207	0xbc922c30	-0.017843336
208	0x3e10234e	0.14075968
209	0xbd0271f0	-0.03184694
210	0xbe2361de	-0.15955302
211	0x3d6f80f0	0.058472574
212	0xbda437c0	-0.08018446
213	0xbd9948f8	-0.07484621
214	0xbe26d91e	-0.16293761
215	0x3dbc0fac	0.09182677
216	0x3e26727a	0.16254607
217	0xbd0634e8	-0.0327653
218	0xbbff9c00	-0.007800579
219	0xbdf02bf4	-0.117271334
220	0xbde51010	-0.11184704
221	0x3e467514	0.193806
222	0xbde54804	-0.111953765
223	0xbe2a368c	-0.1662237
224	0x3e3c7ff4	0.18408185
225	0xbd8cef04	-0.06881526
226	0x3e352668	0.17690432
227	0xba0eb600	-0.000544399
228	0xbe33d4de	-0.17561671
229	0x3e1b3734	0.15157777
230	0x3e598734	0.21242982
231	0x3d639f70	0.055571973
232	0xb9823800	-0.00024837255
233	0x3e19f34a	0.15034214
234	0xbde4aef0	-0.11166179
235	0x3e3f4f68	0.18682635
236	0xbd8dddb0	-0.06927049
237	0xbe31d20a	-0.1736528
238	0xbcd1bf50	-0.02560392
239	0x3d386c40	0.04502511
240	0xbe48a740	-0.19595051
241	0x3dd9156c	0.10599789
242	0x3e6af0b0	0.22943377
243	0x3b8930c0	0.0041867197
244	0xbe0a37b4	-0.13497812
245	0xbe488f8c	-0.19586009
246	0x3dbc86b8	0.09205383
247	0x3dcae0f8	0.09906191
248	0x3df298f0	0.11845577
249	0x3e236cb0	0.1595943
250	0x3d9e0978	0.0771665
251	0x3d93b04c	0.0721136
252	0x3d3db2f8	0.046313256
253	0x3e68ddfc	0.2274093
254	0xbd69c7f8	-0.05707547
255	0xbe09ae20	-0.1344533

bias f4 [168]
0	0xbe727a14	-0.23679382
1	0x3d85c6e0	0.06532073
2	0x3dac6020	0.08416772
3	0xbdb1dd0c	-0.086847395
4	0x3b5c0480	0.0033572018
5	0x3e5f90c8	0.21832573
6	0x3e3017e4	0.17196614
7	0x3e175a2a	0.14780489
8	0xbdffe998	-0.12495726
9	0xbdf3ba50	-0.11900771
10	0x3e28ec7a	0.16496459
11	0x3e624984	0.22098356
12	0x3d662b88	0.05619386
13	0xbe3b209a	-0.18274155
14	0x3e6ffdc8	0.23436654
15	0xbe5d9b2e	-0.21641228
16	0xbd61f3a0	-0.05516398
17	0xbce82290	-0.028336793
18	0x3e441e74	0.19152242
19	0xbe405128	-0.18780959
20	0x3e2e3342	0.17011741
21	0x3e1afd4c	0.15135688
22	0x3d2a1a30	0.04152888
23	0xbe5c8a84	-0.21537215
24	0x3d0562f0	0.032565057
25	0x3e1e910c	0.15485018
26	0x3e7c4fce	0.24639818
27	0x3bfa9f00	0.007648349
28	0xbe172ec8	-0.1476394
29	0x3e711e3e	0.23546693
30	0xbe78e6b0	-0.2430675
31	0x3e6ce0ac	0.2313258
32	0xbd151df8	-0.036405534
33	0xbe28f82e	-0.16500923
34	0x3d32ead0	0.043680966
35	0xbda0a66c	-0.078442425
36	0xbe6e79f0	-0.23288703
37	0xbe251080	-0.16119576
38	0x3e28339e	0.1642594
39	0xbd2a53d8	-0.041583866
40	0xbd592640	-0.053014994
41	0xbdc1ee74	-0.094693094
42	0x3dfdc408	0.123909056
43	0x3e756d6e	0.23967525
44	0x3e01d534	0.12678987
45	0xbc0e3380	-0.008679271
46	0xbcf7e610	-0.03026107
47	0xbdb94148	-0.090456545
48	0x3dc88b3c	0.09792182
49	0xb9ca4c00	-0.00038585067
50	0x3e087ee8	0.13329661
51	0xbdfdb344	-0.12387708
52	0x3cdd6870	0.027027339
53	0x3ce20f60	0.027595222
54	0x3e14953e	0.14510056
55	0x3e517bfa	0.2045745
56	0x3e06f704	0.13180166
57	0x3d4b5bb8	0.049648017
58	0x3d91fcec	0.07128319
59	0xbd67d298	-0.056597322
60	0x3e2e1c5e	0.17003009
61	0xbe25a840	-0.16177464
62	0xbd485df8	-0.04891774
63	0x3dd55570	0.104166865
64	0xbe1f623c	-0.15564817
65	0xbd29d4a8	-0.04146257
66	0xbc13d280	-0.009022355
67	0xbe51d164	-0.20490032
68	0xbd458ec8	-0.04823187
69	0x3da57b34	0.0808014
70	0xbcd387e0	-0.025821626
71	0x3e6460d8	0.22302568
72	0xbe1f86ce	-0.15578768
73	0xbe61662a	-0.22011629
74	0x3e2fe95a	0.1717886
75	0x3e155e36	0.1458672
76	0xbd38ac68	-0.045086294
77	0xbc2bcb00	-0.010485411
78	0xbdd37b68	-0.10326272
79	0x3e1586fe	0.14602277
80	0xbe25d514	-0.16194564
81	0x3de5f3c0	0.11228132
82	0xbcf025a0	-0.029314816
83	0x3e2baeae	0.16765854
84	0xbc81cb30	-0.015843958
85	0xbe7fbe86	-0.24975023
86	0x3d27b4b0	0.0409438
87	0xbe497a30	-0.19675517
88	0xbe1a7726	-0.15084514
89	0x3c612f80	0.013744235
90	0xbe6b8ee6	-0.2300373
91	0x3e57df80	0.21081352
92	0xbe7cda04	-0.24692541
93	0xbd8f780c	-0.07005319
94	0xbe01d4ac	-0.12678784
95	0xbe26a1b0	-0.16272616
96	0xbe5d8d0a	-0.21635833
97	0xbe34e022	-0.17663625
98	0xbda54010	-0.080688596
99	0x3e6e9f5c	0.23302978
100	0x3deee948	0.116655886
101	0x3dc0293c	0.09382865
102	0x3e64a6b2	0.22329214
103	0x3e11e92c	0.14249104
104	0xbe7c2b34	-0.24625856
105	0x3da55b14	0.080740124
106	0xbe61bd50	-0.22044873
107	0xbe41e11e	-0.18933532
108	0x3dea8ba4	0.114524156
109	0xbe325fa6	-0.174193
110	0xbd6728c8	-0.056435376
111	0x3da84da4	0.08217934
112	0xbe7068d6	-0.23477492
113	0x3e1502d2	0.14551857
114	0xbe21825c	-0.15772384
115	0xbe07062e	-0.13185951
116	0xbd6bdc70	-0.057583272
117	0x3e75f64a	0.24019733
118	0xbe035c5e	-0.12828204
119	0xbde0c7ec	-0.10975632
120	0x3e13c916	0.14432177
121	0xbe7f1608	-0.24910748
122	0xbe6f80e6	-0.23389015
123	0xbdb0215c	-0.08600113
124	0xbe462d90	-0.19353318
125	0x3e27af74	0.16375524
126	0x3e698320	0.22803926
127	0xbe3cb4e6	-0.18428382
128	0x3db981b8	0.09057945
129	0xbd4daa28	-0.0502111
130	0x3c18a080	0.00931561
131	0xbd6a3778	-0.057181805
132	0x3e3db310	0.18525338
133	0x3e532bdc	0.206222
134	0xbe4d780c	-0.20065325
135	0x3e65a194	0.22424918
136	0xbc1fba60	-0.009749025
137	0x3e75792c	0.23972005
138	0x3e5a742e	0.21333382
139	0xbe5f04b2	-0.21779135
140	0x3c63a260	0.013893694
141	0x3de80784	0.113295585
142	0xbd274ac8	-0.0408428
143	0xbdef6fcc	-0.116912454
144	0xbc987300	-0.018609524
145	0xbdc85520	-0.09781861
146	0xbdf3244c	-0.118721575
147	0xbe51d89e	-0.20492789
148	0x3d8a995c	0.06767532
149	0xbdae63d8	-0.085151374
150	0xbd104580	-0.03522253
151	0x3e70b6dc	0.23507255
152	0xbe1240fe	-0.14282605
153	0xbe11e9a8	-0.14249289
154	0x3e41ce48	0.18926346
155	0x3d3c9ab0	0.04604596
156	0x3cd0cb00	0.025487423
157	0x3e1fee50	0.15618253
158	0x3d863ef0	0.06554973
159	0x3c3e6c00	0.011622429
160	0xbe42d390	-0.19026017
161	0x3ddf0fc0	0.10891676
162	0x3e7b12c4	0.24518877
163	0xbe128db8	-0.14311874
164	0x3d406028	0.0469667
165	0x3d0dcfb8	0.034621924
166	0xbd8c1608	-0.068401396
167	0xbd972870	-0.0738076

weight f4 [64, 168]
0	0x34311eaf	1.6495572e-07
1	0x3796b9fd	1.7968001e-05
2	0xa9286bf0	-3.7397114e-14
3	0x36b142f7	5.282807e-06
4	0xaba5b18a	-1.1773232e-12
5	0x358b41dc	1.0375475e-06
6	0x326295e9	1.3189017e-08
7	0xb8119092	-3.4705336e-05
8	0x23d4b560	2.3061901e-17
9	0xb6b0d227	-5.2696737e-06
10	0x8003806c	-3.21576e-40
11	0x8006e718	-6.33914e-40
12	0x33c1c0dd	9.0223445e-08
13	0x9f0aed99	-2.9419173e-20
14	0xb788d796	-1.6312853e-05
15	0xaeffb408	-1.16280374e-10
16	0xb1f85f60	-7.228593e-09
17	0x36c1518a	5.7613406e-06
18	0x36d6e830	6.404727e-06
19	0x3827e11f	4.0025563e-05
20	0xb6eb79a1	-7.0177052e-06
21	0xb436df5f	-1.7031333e-07
22	0x00076911	6.80539e-40
23	0x00047c8b	4.1202e-40
24	0x0001c673	1.63026e-40
25	0x37f3af3d	2.9049459e-05
26	0x36250a9e	2.4593096e-06
27	0x351225b7	5.444412e-07
28	0x8f411ab0	-9.5207745e-30
29	0x2dc75619	2.2661916e-11
30	0xb74da1bd	-1.225661e-05
31	0x2e40c846	4.3833624e-11
32	0x3504719d	4.933916e-07
33	0xb797347f	-1.8025048e-05
34	0xb825e363	-3.9550836e-05
35	0x2a0b75fe	1.2386617e-13
36	0xb738fb29	-1.1025732e-05
37	0xb667efb8	-3.4561217e-06
38	0x19daa183	2.2605906e-23
39	0xaf0e511f	-1.2943645e-10
40	0xb65c6a02	-3.284426e-06
41	0xb3dfd98a	-1.0423817e-07
42	0x8005d101	-5.34154e-40
43	0x37ef8e52	2.8557293e-05
44	0x80074f6b	-6.71338e-40
45	0x9eaa0d11	-1.8004854e-20
46	0xa331696a	-9.6175115e-18
47	0x800428db	-3.81998e-40
48	0x8006f4d9	-6.38848e-40
49	0xb669e3c5	-3.4852285e-06
50	0x02f3b725	3.581076e-37
51	0xb81b1702	-3.6976307e-05
52	0xaa78b9ae	-2.2091245e-13
53	0x37e2e02a	2.7045684e-05
54	0xb7dfe5e4	-2.6690723e-05
55	0xb5d8fe1f	-1.6167213e-06
56	0x32995fe9	1.785516e-08
57	0x25b4cab0	3.136237e-16
58	0x80040dd0	-3.72297e-40
59	0xb5b13d17	-1.3205307e-06
60	0xb42395fe	-1.5235125e-07
61	0xb6f8480d	-7.3993638e-06
62	0xb5a7b2d2	-1.2494513e-06
63	0xb4bf12ca	-3.5590193e-07
64	0x2ff3cca1	4.434684e-10
65	0xb581c33c	-9.66807e-07
66	0x2f2ca484	1.5701757e-10
67	0x3383998f	6.128095e-08
68	0x00001da2	1.063e-41
69	0x0002cdf0	2.57547e-40
70	0x35f71611	1.8409356e-06
71	0xb5508e8c	-7.769347e-07
72	0xb7e1fb8a	-2.6939222e-05
73	0x11e1e60a	3.5640513e-28
74	0x118bd338	2.2060507e-28
75	0xa13753d2	-6.2113747e-19
76	0xa935a6d6	-4.033478e-14
77	0x0001b2e8	1.56015e-40
78	0xb7d94d6e	-2.5904472e-05
79	0x8f222ef4	-7.9962595e-30
80	0x0a5e0705	1.06902314e-32
81	0x2cb1a165	5.048561e-12
82	0xb81b70a5	-3.7059788e-05
83	0xb71a96c0	-9.2142145e-06
84	0xa84f819c	-1.1518913e-14
85	0x35836f9f	9.792747e-07
86	0xad2bafb6	-9.75924e-12
87	0xa18b7c63	-9.451931e-19
88	0x84866c6b	-3.1602815e-36
89	0x8005c282	-5.28954e-40
90	0x2e361a4b	4.1405362e-11
91	0x0003d046	3.50221e-40
92	0x800363b6	-3.11276e-40
93	0x9041a3b7	-3.818866e-29
94	0x334c50a9	4.757081e-08
95	0xa162cee0	-7.6845575e-19
96	0xb777c330	-1.4767793e-05
97	0x35d6783f	1.5979239e-06
98	0x000672e2	5.92225e-40
99	0x18a2e552	4.2107573e-24
100	0x268d7f2c	9.81831e-16
101	0x8c0b33a7	-1.0723714e-31
102	0xb839a7f0	-4.426384e-05
103	0x34cdc9d1	3.8331066e-07
104	0x8ebd8726	-4.672224e-30
105	0x2f1f916b	1.4512629e-10
106	0xb491c95f	-2.715487e-07
107	0xb321e656	-3.7695223e-08
108	0x13c1a15a	4.8879154e-27
109	0x906847a8	-4.5809134e-29
110	0x292a5112	3.78179e-14
111	0xb4196c6a	-1.4288676e-07
112	0x324c83ee	1.190436e-08
113	0xafac6126	-3.1355646e-10
114	0xb3bbd6b4	-8.74692e-08
115	0xb49b6dce	-2.8950893e-07
116	0xa8f5a6c8	-2.7272794e-14
117	0x8003d1c4	-3.50756e-40
118	0x8001f86a	-1.8095e-40
119	0x36cff92c	6.198088e-06
120	0xaa906355	-2.5648464e-13
121	0xb1f57841	-7.1441097e-09
122	0xb48f92b9	-2.674258e-07
123	0xb7204b51	-9.554279e-06
124	0x8004d3f9	-4.43383e-40
125	0xb834eda2	-4.3136657e-05
126	0x8007d3c5	-7.18817e-40
127	0xb34555fd	-4.5945843e-08
128	0x00015a3a	1.24203e-40
129	0x350cf731	5.2513775e-07
130	0xb6880455	-4.05362e-06
131	0x34321f27	1.6588875e-07
132	0x33f66825	1.14742114e-07
133	0x00071684	6.50926e-40
134	0x8f205923	-7.905776e-30
135	0x80045afe	-3.99984e-40
136	0x38097b3d	3.277812e-05
137	0x8006089d	-5.54103e-40
138	0x80038783	-3.24119e-40
139	0x2916b990	3.346764e-14
140	0x8c5d9580	-1.7070209e-31
141	0x80013760	-1.117e-40
142	0x913f9f84	-1.5116398e-28
143	0xb386264d	-6.246828e-08
144	0x8feb9992	-2.3231942e-29
145	0x357ed33d	9.4929766e-07
146	0xb67e7836	-3.7918921e-06
147	0x80041d7b	-3.77918e-40
148	0xb7b3077d	-2.134195e-05
149	0x2d2208fb	9.210628e-12
150	0xa50771e3	-1.174797e-16
151	0x0744741f	1.4779526e-34
152	0x0215c3f3	1.1003026e-37
153	0x8006f5fb	-6.39254e-40
154	0x000222ad	1.9611e-40
155	0x0003f508	3.63407e-40
156	0x336625c4	5.3585396e-08
157	0x80072acd	-6.58203e-40
158	0x371ee50f	9.470866e-06
159	0x34830bda	2.4409275e-07
160	0x01578ad0	3.9588856e-38
161	0x36ce688f	6.1514506e-06
162	0x800304bb	-2.77203e-40
163	0x30bcc789	1.3735512e-09
164	0x80006e2f	-3.9526e-41
165	0xb79530fd	-1.7784996e-05
166	0xb79656f5	-1.7921886e-05
167	0x80153ef5	-1.95113e-39
168	0xbd8ba977	-0.06819432
169	0xbd59e0b7	-0.05319282
170	0xbcfaa771	-0.03059742
171	0x3d7cdcb6	0.061733924
172	0xbc5fa4d1	-0.013650135
173	0xbd5b6678	-0.05356452
174	0xbcce6d75	-0.025198678
175	0x3c960a6f	0.018315522
176	0x3ceedc9e	0.029157933
177	0x3d47b143	0.048753034
178	0xbd801755	-0.0625445
179	0x3c3b72a0	0.011440903
180	0x3d40ea8d	0.047098685
181	0x3d3bdacb	0.045862954
182	0xbc893df1	-0.016753169
183	0xbd3002d5	-0.04297145
184	0x3aad4d0f	0.0013221818
185	0xbc544b9d	-0.012957481
186	0xbd93cb2c	-0.07216486
187	0x3bc7eba6	0.0061010895
188	0xbc9c9a1f	-0.01911646
189	0xbb458851	-0.0030141065
190	0x3d56e2e6	0.05246248
191	0x3d3badba	0.045819975
192	0xbb1efeeb	-0.002426083
193	0xbd7360f9	-0.059418652
194	0xbc238666	-0.009980774
195	0xbbfdbb02	-0.0077432403
196	0x3d95df9b	0.0731804
197	0x3c575d96	0.013144871
198	0x3aba15c4	0.001419716
199	0x3d92bf64	0.07165411
200	0xbd68e61f	-0.056860086
201	0xbd2f9eff	-0.04287624
202	0xbd6cfd60	-0.057858825
203	0x3d928e2b	0.07156023
204	0xbcea36ef	-0.028590648
205	0x3d13153e	0.03590893
206	0xbce0f67c	-0.027461283
207	0x3d452e45	0.04813983
208	0xbac4052e	-0.0014955157
209	0x39488a10	0.00019124919
210	0x3ce7814c	0.028259896
211	0x3d9db7ae	0.0770105
212	0xbd61f430	-0.055164516
213	0xbcee30a9	-0.029075937
214	0x3ce10feb	0.02747341
215	0x3b1b94a6	0.0023739724
216	0xbd270753	-0.04077847
217	0x3cba9437	0.022775752
218	0xbd8f1d98	-0.069880664
219	0xbc073f2f	-0.00825481
220	0x3d9dec31	0.077110656
221	0xbd8cc490	-0.06873429
222	0xbd42abfe	-0.047527306
223	0x3d58e5c9	0.052953515
224	0xbd8fb48c	-0.070168585
225	0x3d1f695f	0.03891885
226	0xbd59c763	-0.053168666
227	0x3c0db5be	0.008649288
228	0xbd47fe5f	-0.04882657
229	0x3d92cc93	0.07167926
230	0xbd12ea76	-0.03586813
231	0x3b548162	0.003242575
232	0x3ca3bd37	0.019987686
233	0x3d6353b2	0.05549974
234	0x3d38ffbf	0.045165773
235	0x3c9547f0	0.018222779
236	0x3cb37b8c	0.021909498
237	0xbcd1593c	-0.025555246
238	0x3d47d19a	0.048783876
239	0x3c4a50f2	0.0123484
240	0x3d5790ab	0.0526282
241	0xbd65e635	-0.056127746
242	0x3d803a67	0.06261139
243	0xbc4e8156	-0.012604078
244	0x3d91dde1	0.07122398
245	0x3c477391	0.012173549
246	0x3d59489e	0.05304777
247	0x3d8259eb	0.06364807
248	0x3d919ca5	0.07109956
249	0xbbc43cc2	-0.005988688
250	0x3d821d56	0.06353252
251	0xbc4eff0b	-0.012634049
252	0xbd8f6975	-0.07002536
253	0xbd880104	-0.06640819
254	0x3ccafa12	0.024777446
255	0x3d243ae7	0.040095236

bias f4 [64]
0	0x97842e64	-8.542011e-25
1	0xbd9091b1	-0.070590384
2	0x3d95b5a1	0.073100336
3	0x3d81d95e	0.063402876
4	0x3c0e78c2	0.008695783
5	0x3d45c893	0.048286986
6	0xbd9072a2	-0.070531145
7	0x3d9c20dd	0.07623456
8	0xbc29b08a	-0.010357032
9	0xbd6a4bc5	-0.057201166
10	0x3cc69e21	0.024245324
11	0xbd6ef55e	-0.05833947
12	0x0006e3c7	6.32724e-40
13	0x3d354205	0.044252414
14	0xb0b9ed13	-1.3527902e-09
15	0x3d2f4ed7	0.042799797
16	0x3cea1a7e	0.028577086
17	0xbcafc79a	-0.021457482
18	0xbcf20ab3	-0.029546117
19	0x3d7a45be	0.061101668
20	0x3c584fc2	0.0132026095
21	0x3d2c2617	0.042028513
22	0x3c1d5b27	0.009604252
23	0x3c94fdb5	0.018187383
24	0x3c0f75fc	0.008756157
25	0x3d331156	0.043717705
26	0xa9dad85c	-9.718677e-14
27	0x3c4e5488	0.012593396
28	0xbd549c4c	-0.05190687
29	0xb9a7fb3c	-0.00032039906
30	0x3d50f886	0.05101826
31	0x3d2f9cb5	0.042874057
32	0xbc283347	-0.010266132
33	0x3d8fc87b	0.070206605
34	0xbd0f4599	-0.034978483
35	0xbd9636fc	-0.07334706
36	0xb7eb3502	-2.8038867e-05
37	0x3d83b20c	0.06430444
38	0xa87d0583	-1.40455164e-14
39	0x3d6385f6	0.055547677
40	0x3bdaa74c	0.0066727754
41	0x00066c84	5.89941e-40
42	0xbd42a83b	-0.04752372
43	0xbba0fb49	-0.004912768
44	0x3c48da4c	0.012259077
45	0xbcf5bf25	-0.029998371
46	0xbba22830	-0.0049486384
47	0x3cb8779c	0.022517972
48	0xbd8cbebc	-0.06872317
49	0x3d913de6	0.07091884
50	0x3c26cc79	0.010180586
51	0x3d14f137	0.036362853
52	0xb6ffdbec	-7.6251945e-06
53	0xbb273ddf	-0.0025519056
54	0xbb3f6050	-0.0029201694
55	0xbd689967	-0.05678692
56	0x3d191d6d	0.03738158
57	0xbcdea0d1	-0.027176293
58	0xbd5e3cfd	-0.05425738
59	0xa0a32cb8	-2.7642866e-19
60	0xbc2181ca	-0.009857604
61	0xbcc59a12	-0.024121318
62	0xb47f52d4	-2.3778858e-07
63	0xbd69cd78	-0.057080716

weight f4 [1, 64]
0	0xb87ec77d	-6.0744107e-05
1	0x3d582e53	0.052778553
2	0x3dcd3996	0.10020749
3	0x3dc75b9f	0.09734272
4	0xbdb8e0ea	-0.09027274
5	0x3d8f87d1	0.07008327
6	0x3db13476	0.08652584
7	0xbd91725c	-0.071018904
8	0xbd4eb959	-0.05046973
9	0xbdbc6e75	-0.092007555
10	0xbc8b268b	-0.016986152
11	0xbd0eda0f	-0.034875926
12	0xa260b428	-3.0453035e-18
13	0x3c69a0fb	0.014259572
14	0x0004f52b	4.55292e-40
15	0x3e00072c	0.12502736
16	0xbd9219df	-0.07133841
17	0x3d68ca10	0.056833327
18	0xbd3cd3b7	-0.046100345
19	0xbcbc5312	-0.02298883
20	0xbdfce645	-0.12348608
21	0xbdefde16	-0.117122814
22	0xbd450832	-0.04810352
23	0xbbbf1a13	-0.0058319657
24	0x3c97a06e	0.018509116
25	0x3b0fb74d	0.0021929324
26	0x000793e2	6.95899e-40
27	0x3b124438	0.0022318494
28	0xbda25c17	-0.07927721
29	0xbd45b4b2	-0.048268028
30	0x3bc6c4f9	0.0060659614
31	0x3b33bc2b	0.002742539
32	0x3c405e29	0.0117411995
33	0x3df8f7ab	0.12156614
34	0x3c30628c	0.010765683
35	0x3bc30ab4	0.0059522036
36	0xb94490c4	-0.00018745946
37	0xbd6b9782	-0.057517536
38	0xafa7b2f1	-3.0504269e-10
39	0x3d553df9	0.052061055
40	0x3dbef879	0.09324736
41	0x80059329	-5.11969e-40
42	0x3d97b385	0.074072875
43	0x3dd841f4	0.105594546
44	0x3d646c78	0.055767506
45	0x3dd5a217	0.10431307
46	0x3d58bd9a	0.052915193
47	0xbd2dabab	-0.042400043
48	0x3d11817c	0.035523877
49	0xbd6a8a90	-0.05726105
50	0x3df156b2	0.11784114
51	0xbda4fb3c	-0.08055732
52	0x8005bce6	-5.26941e-40
53	0xbb4ca187	-0.0031224207
54	0x3ca94d8a	0.020666856
55	0xbdc8a6a1	-0.09797407
56	0xbd9ffa9a	-0.0781147
57	0x3b6c8005	0.0036087048
58	0x3c9d1abf	0.019177793
59	0x341a1699	1.4350589e-07
60	0xbd028e0a	-0.03187374
61	0xbd52d630	-0.051473796
62	0x00051a58	4.68628e-40
63	0x3db312f1	0.08743847

weight f4 [8, 40]
0	0xbf8e86cc	-1.1134887
1	0x3ee5fb54	0.4491831
2	0x3e9e9021	0.30969337
3	0x3f1a157f	0.6018905
4	0x3f8a2b61	1.0794488
5	0x3fa62bda	1.2982132
6	0xbe7c5e2a	-0.24645296
7	0xbfe80220	-1.8125648
8	0x400937ff	2.1440427
9	0xbf5e6f69	-0.8688875
10	0x3ffbf2cb	1.968347
11	0xbf882257	-1.063548
12	0xbfd38568	-1.6525087
13	0x3f02c16e	0.510764
14	0xbefbb198	-0.4915893
15	0xbf014cd1	-0.5050784
16	0x3db4d22c	0.088291496
17	0x3f5c066b	0.85947293
18	0x3f84df9f	1.0380744
19	0x3df4512c	0.11929545
20	0x3eb2eed6	0.34947842
21	0x3eaa47f9	0.33258036
22	0xbe4de311	-0.2010615
23	0x3fae430b	1.361421
24	0x3f06fad4	0.52726483
25	0x3faeb19a	1.364795
26	0xbe263edc	-0.16234916
27	0x3f3e9253	0.74442023
28	0xbebf9b55	-0.37423196
29	0x3f1cdba2	0.61272633
30	0xbf08b669	-0.53403336
31	0x3f22d575	0.6360696
32	0xbf8f0c61	-1.1175653
33	0x3fa7938f	1.3091906
34	0xbee6f0a2	-0.45105463
35	0x3fb2131e	1.3912084
36	0x3ee17c23	0.4404002
37	0xbe2dfa20	-0.16989946
38	0x3f710b11	0.9415751
39	0x3f02353c	0.5086248
40	0xbe64817c	-0.2231502
41	0xbf737557	-0.9510092
42	0xbe7e6bde	-0.24845836
43	0x3f0a1a45	0.53946334
44	0xbfc8fe53	-1.5702614
45	0x3f3958dd	0.7240122
46	0xbfa88caa	-1.3167927
47	0xbe3f6862	-0.18692163
48	0x3eec4dcf	0.46153113
49	0x3f1af86a	0.605353
50	0xbf5793c7	-0.84209865
51	0x3efdfae6	0.49605483
52	0x3ff3fbcd	1.9061219
53	0xbe7ed41e	-0.24885604
54	0xc002c1cd	-2.0430787
55	0xbf723626	-0.94613874
56	0xbff5046d	-1.9141976
57	0xbdb3dcea	-0.087823704
58	0x3e9bfe86	0.30467623
59	0x3fee3406	1.8609626
60	0x4039105f	2.8916242
61	0x3f7cf022	0.98803914
62	0x3df288be	0.11842488
63	0xbebcebe0	-0.36898708
64	0xbf73a01d	-0.9516619
65	0xbf76cf0f	-0.96409696
66	0x3d16e4fd	0.036839474
67	0x3f2afe68	0.66794443
68	0x3fe168b0	1.7610073
69	0xbed18dda	-0.40928537
70	0xbf5438fc	-0.8289945
71	0x3eb6f1ee	0.35731453
72	0x3fb56821	1.4172403
73	0xbe4ce9f8	-0.20011127
74	0x3d621232	0.055193134
75	0xbeb4b22b	-0.3529218
76	0xbeeddb3a	-0.4645632
77	0x3d40a68c	0.04703383
78	0x3ed57849	0.41693333
79	0x3fc2f517	1.5231045
80	0x3e4d5af2	0.20054224
81	0x3eb59657	0.35466263
82	0xbfdf336b	-1.7437567
83	0x3f038e6b	0.5138919
84	0x3fa2012f	1.2656611
85	0x3f7a8de8	0.9787278
86	0xbd675a2e	-0.056482486
87	0xbf796961	-0.9742642
88	0xbffd805e	-1.98048
89	0x3f8946ac	1.0724692
90	0xbe46a2df	-0.19398068
91	0x3d09bfc0	0.033630133
92	0x3ec40667	0.38286135
93	0x3ef76229	0.48317078
94	0xbf815208	-1.0103159
95	0xbf1da866	-0.6158508
96	0xbe7b15a0	-0.24519968
97	0x3e76af17	0.24090229
98	0xbe70a1cc	-0.2349922
99	0x3efc9106	0.49329394
100	0x3d65c902	0.0560999
101	0x3fba11bc	1.4536662
102	0xbfe14d80	-1.7601776
103	0x3feb4b42	1.8382342
104	0xbf9f2184	-1.2432103
105	0xbe79990f	-0.24374793
106	0x3f14495f	0.57924455
107	0xbee82760	-0.4534254
108	0xbf6d2afc	-0.92643714
109	0x3f1d5152	0.6145221
110	0x3fd4962b	1.6608328
111	0xbfce3b50	-1.6111851
112	0x3cce7965	0.02520437
113	0x3e810fd2	0.25207382
114	0xbe776b71	-0.2416208
115	0xbea0bcff	-0.31394193
116	0x3f0d5cb8	0.552196
117	0x3f998e19	1.199649
118	0xbf8a41d3	-1.0801338
119	0x3ea7b734	0.3275696
120	0xbf482f00	-0.78196716
121	0xbf9908c8	-1.1955805
122	0x404acf82	3.1689153
123	0xbe278964	-0.16361004
124	0xbe34ba22	-0.17649129
125	0x3f47fa15	0.7811597
126	0xbfb0f5fa	-1.3825066
127	0xbe94e9d9	-0.29084662
128	0x3f0ac79b	0.54210824
129	0x3fdf303d	1.7436596
130	0xbf00b362	-0.50273716
131	0xbfa1b1be	-1.2632368
132	0xbe825fc1	-0.2546368
133	0x4026a411	2.6037638
134	0x3e0991a3	0.13434462
135	0xbfd26817	-1.6438016
136	0xbcb90b20	-0.022588313
137	0x3fa2920a	1.2700818
138	0xbeb7c10e	-0.35889477
139	0xbefc556e	-0.49283928
140	0xbf9862d0	-1.1905155
141	0xbe7bbc16	-0.24583468
142	0xbf4a9ed6	-0.79148614
143	0xbee2d5c4	-0.44303715
144	0xbf87fc80	-1.0623932
145	0x3f105145	0.5637401
146	0xbf469427	-0.7756981
147	0xbf93efa1	-1.1557504
148	0x3d75d41d	0.06001674
149	0x3f560ab6	0.83610094
150	0x3f9791ca	1.1841366
151	0x3ec41fd0	0.3830552
152	0x3f22fe18	0.63668966
153	0xbf86939b	-1.0513796
154	0xbfb69230	-1.4263363
155	0x3ec8f934	0.39252627
156	0x3e57944b	0.21052663
157	0x3efc4676	0.49272507
158	0x3f13ffe9	0.5781236
159	0x3e7abbd9	0.2448572
160	0x3d93a317	0.07208841
161	0xbe669790	-0.22518754
162	0x3ea2db92	0.31808144
163	0x3e918bdc	0.28427017
164	0x3f13bbac	0.5770824
165	0x3f608375	0.8770059
166	0xbee95306	-0.45571154
167	0xbfa0a291	-1.2549611
168	0x3f046c4a	0.51727736
169	0x3f90b989	1.1306621
170	0x3f798c4d	0.97479707
171	0xbfc22f31	-1.5170652
172	0xbfc1013d	-1.5078503
173	0xbf5e80ca	-0.86915267
174	0xbe3adca1	-0.18248226
175	0x3f653f22	0.8954946
176	0x3edaf02b	0.4276136
177	0xbeb5ef63	-0.355342
178	0xbf148c35	-0.5802644
179	0x3f67b789	0.9051443
180	0x3f8a468d	1.080278
181	0xbf148e1b	-0.58029336
182	0xbf24afe2	-0.64330876
183	0xbe5abb7e	-0.21360585
184	0xbf43be56	-0.76462305
185	0xbf4c6b9c	-0.798517
186	0xbfa0924e	-1.2544649
187	0xc0006e0e	-2.0067172
188	0x3fd904ee	1.695463
189	0xbf4a70be	-0.7907828
190	0xbfcf65d8	-1.6202955
191	0x3f6b1bd1	0.9183932
192	0x3dc7eac9	0.097615786
193	0x3f24b766	0.64342344
194	0xbf695294	-0.9114163
195	0xbdb67d16	-0.08910577
196	0x3fcf05d2	1.6173651
197	0x3e06b041	0.13153173
198	0x3da7c7cc	0.08192405
199	0x3fc0ab28	1.5052233
200	0xbec0ff09	-0.37694576
201	0x3fb4f331	1.4136716
202	0x3fbca308	1.4737253
203	0x3ea1f083	0.31628808
204	0x3de30262	0.11084439
205	0x3ed1eeeb	0.41002592
206	0x3f50c550	0.81551075
207	0xbfa8eb60	-1.3196831
208	0x3f845c49	1.0340663
209	0xbff8378d	-1.9391953
210	0x40235913	2.5523117
211	0xbfc25a47	-1.51838
212	0xbefd0fbf	-0.49426076
213	0x3fb25157	1.3931073
214	0xbfff6080	-1.9951324
215	0x3ea9c126	0.33155173
216	0x3f8379d8	1.0271559
217	0x3d4bca49	0.04975346
218	0x3f9f9a52	1.246897
219	0x3d86bd78	0.06579107
220	0x3db3bfe2	0.08776833
221	0xbd9e6d92	-0.07735743
222	0x3ec26ce6	0.37973708
223	0xbd58e25d	-0.05295025
224	0x3f68bafd	0.9091032
225	0x3f94d934	1.1628785
226	0x3f4e0536	0.804767
227	0xbf95fd5b	-1.1717943
228	0x3f67164e	0.9026841
229	0x3f84a961	1.036419
230	0x3f2973a0	0.66192055
231	0x3e7f2ea7	0.2492014
232	0xbee7cfcf	-0.45275733
233	0x3fc10e82	1.5082552
234	0x3de80f9b	0.113311015
235	0xbfbbe888	-1.4680338
236	0xbe9d729a	-0.30751497
237	0xbff28c0c	-1.8948989
238	0xbeb3167e	-0.34978098
239	0x3f7829a9	0.9693857
240	0xbf1aa171	-0.6040259
241	0xbf3a5f43	-0.7280161
242	0x3fe7bf0e	1.810518
243	0x3ead82c8	0.3388884
244	0x3fa45125	1.2837263
245	0xbf92fafc	-1.1482844
246	0xbe027135	-0.12738498
247	0xbf190aa5	-0.5978187
248	0x4005c224	2.0899744
249	0x3e926e77	0.28599903
250	0x3cf0de60	0.029402912
251	0x3eab7a7f	0.33491895
252	0x3fd3a8bd	1.653587
253	0xbef08542	-0.46976668
254	0xbe4b846e	-0.19874737
255	0xbf4e275d	-0.80528814

weight f4 [8, 40]
0	0x3f13c026	0.5771507
1	0x3fdf2872	1.7434218
2	0x3c9a5b34	0.018842317
3	0xbfe865a6	-1.8156021
4	0xbfc4939a	-1.5357544
5	0x3f17fa53	0.5936634
6	0xbdf0ab6f	-0.11751448
7	0x3f5e4d14	0.8683636
8	0xbffb1e5f	-1.9618644
9	0x3e4a4710	0.1975367
10	0xbfa6a462	-1.3018916
11	0xbfc75bca	-1.5574887
12	0xbde3af46	-0.11117415
13	0x3e86a354	0.26296484
14	0x3f8e6b03	1.1126407
15	0x3f554691	0.833108
16	0xbf81c873	-1.0139297
17	0xbf08bab5	-0.5340989
18	0xbf9b8f71	-1.215315
19	0xbf5f1d4b	-0.8715407
20	0x3d73002b	0.059326332
21	0x3ecf5564	0.40494835
22	0x3c99668b	0.018725654
23	0xbfa6568e	-1.2995164
24	0x3ec13ef2	0.37743336
25	0x3e01b2fb	0.12665932
26	0xc002d7cf	-2.044422
27	0x3eb2de12	0.3493505
28	0xbf789d75	-0.9711526
29	0x3f4f2843	0.8092081
30	0xbd14e29a	-0.036348917
31	0xbfb741b7	-1.431693
32	0x3f199418	0.599916
33	0xbf750811	-0.95715433
34	0xbeb469c1	-0.35236934
35	0x3f92b6af	1.1462001
36	0xbf8de720	-1.1086159
37	0xbeef41a8	-0.4672978
38	0xbfd06a53	-1.6282448
39	0xbf1fbf27	-0.6240105
40	0xbf66752b	-0.90022534
41	0x3d3b5fce	0.045745663
42	0xbf04d2ae	-0.5188397
43	0xbf5c9710	-0.86168003
44	0xbf5fda1e	-0.87442195
45	0x3f3d61ef	0.7397756
46	0xbf519b68	-0.81877756
47	0xbde4ad65	-0.11165885
48	0x3f41d2ad	0.7571209
49	0x3f775e65	0.9662841
50	0x3fafdd4e	1.3739412
51	0x3f155d16	0.5834516
52	0x3ec0c25d	0.37648287
53	0xbfae1a96	-1.3601863
54	0x3e938194	0.28809798
55	0xbe486776	-0.19570717
56	0xbf0d363d	-0.55160886
57	0x3fa83d14	1.314364
58	0xbf41f60b	-0.75766057
59	0x3c8596c9	0.016307252
60	0x3fc577de	1.5427206
61	0x3e440a7b	0.19144623
62	0x3d8a8faa	0.06765683
63	0xbfa3946a	-1.2779667
64	0xbf8b2128	-1.0869493
65	0x3e53a459	0.20668162
66	0x3dc2b3b2	0.095069304
67	0xbe7ade8a	-0.24498954
68	0xbc8087c3	-0.015689736
69	0xbf23e142	-0.6401559
70	0xbdc27a61	-0.09495998
71	0xbf8a6474	-1.0811906
72	0x404754a5	3.1145413
73	0x3ed238e0	0.41059017
74	0x3f44353d	0.76643735
75	0x3fb70b7e	1.4300382
76	0x3fdaf530	1.7106075
77	0x3fff2d90	1.993578
78	0x3e384780	0.17996025
79	0xbf0f8d41	-0.5607491
80	0xbfb97651	-1.4489232
81	0x3f962728	1.17307
82	0x4036e05e	2.8574443
83	0x3e27b1d9	0.16376437
84	0xbe5cfe6f	-0.21581434
85	0xc011e9a7	-2.279886
86	0xbf2628fb	-0.6490628
87	0x3e0ec7f3	0.13943462
88	0xbe8b7ed2	-0.27245194
89	0xc00421ad	-2.0645554
90	0xbf9f5015	-1.2446314
91	0xbee7f797	-0.45306084
92	0x3f0e4e42	0.5558816
93	0x3d098856	0.033577286
94	0x3fbca191	1.4736806
95	0x3f8ffc01	1.124878
96	0x3f9e55b8	1.2369909
97	0xbe6f2a12	-0.23355892
98	0xbe012ad7	-0.12613998
99	0x3f407f81	0.75194556
100	0x3f0c3cee	0.5478047
101	0xbee4b1d9	-0.44666937
102	0xbf890e2b	-1.0707449
103	0x3e8724a3	0.2639514
104	0x4022ea0b	2.5455348
105	0x3fe94f29	1.8227283
106	0x3ee95f3a	0.45580465
107	0xbf8193f6	-1.0123279
108	0x3f091001	0.53540045
109	0x3ceacd71	0.028662415
110	0x3f04c615	0.5186475
111	0xbe012a83	-0.12613873
112	0x3f57d808	0.8431401
113	0x3fa379f2	1.277159
114	0xbfa65ef8	-1.2997732
115	0x3fdec983	1.7405246
116	0x3f7cc9f8	0.9874568
117	0xbe33fe80	-0.17577553
118	0x3f3f920d	0.7483223
119	0xbf7beaa3	-0.984049
120	0xbe758228	-0.23975432
121	0xbe2c64ec	-0.16835374
122	0xbf48e3c6	-0.78472555
123	0x3edf2b42	0.4358769
124	0x3f9a03d3	1.2032417
125	0x3fbb2576	1.4620807
126	0x3ee010da	0.43762857
127	0xbf942528	-1.1573839
128	0x3f6c5093	0.92310447
129	0xbcbf9cb8	-0.023390159
130	0xbcffd7fe	-0.031230923
131	0x3dbd31bc	0.09238002
132	0xbf3d8b4a	-0.74040663
133	0x400de866	2.2173095
134	0x3d08a6f0	0.03336233
135	0xbe69ad7a	-0.22820082
136	0xbf4a6cab	-0.79072064
137	0x3df872ba	0.12131257
138	0xbee4edfa	-0.44712812
139	0x3f0e7615	0.5564893
140	0xbeae97ce	-0.34100193
141	0xbfc8194c	-1.563272
142	0x3e2ab64b	0.16671102
143	0x3df94694	0.12171665
144	0x3e7ec524	0.2487989
145	0xbe7e86c2	-0.24856094
146	0xbf955ffd	-1.1669918
147	0xc0013be8	-2.0192814
148	0x3f0ec260	0.5576534
149	0xbef9b132	-0.48768002
150	0xbe8fec22	-0.28109843
151	0x3f2e0863	0.6798155
152	0xbf3cd1c4	-0.73757577
153	0xbf21e5e0	-0.63241386
154	0xbfbfec61	-1.4994012
155	0xbf20215e	-0.62550914
156	0x3f96cd99	1.1781493
157	0xbff29e80	-1.895462
158	0xbef2f544	-0.47452748
159	0x3e8a4c52	0.27011353
160	0x3eba1ad1	0.36348584
161	0x3e874847	0.2642233
162	0x3ee418e4	0.4455024
163	0xbe545911	-0.20737101
164	0x3f5e05f4	0.86727834
165	0xbf4bdef8	-0.796371
166	0xbec3e7b6	-0.3826272
167	0xbeec99e6	-0.46211165
168	0xbf248e21	-0.6427937
169	0xbf2adf0c	-0.6674659
170	0xbef977a9	-0.48724106
171	0xbefe5a23	-0.49678144
172	0x3d9440e1	0.07238937
173	0xbff4dd3a	-1.9130013
174	0xbedf2226	-0.4358074
175	0xbf6a2a59	-0.9147087
176	0x4036f446	2.8586593
177	0xbf80ed2c	-1.0072379
178	0x3c06f9cc	0.008238267
179	0x3d7d31fb	0.061815243
180	0x4022e37a	2.545134
181	0x3f01caa8	0.50699854
182	0x3f028e57	0.50998443
183	0x3f6d3243	0.9265482
184	0x3ee9169b	0.4552506
185	0x3ee793e7	0.45230028
186	0x3d38ed47	0.04514816
187	0xbf3d4d85	-0.7394641
188	0xbf76c4c7	-0.9639401
189	0xbe673d0e	-0.22581884
190	0x3e8d1f7c	0.27563083
191	0x3cacd0ba	0.021095622
192	0xbe288bc0	-0.1645956
193	0xbeef7ab2	-0.46773297
194	0x3fb2fd35	1.3983523
195	0x3f0e4420	0.555727
196	0xbf94cc29	-1.1624805
197	0xbf1a26d5	-0.602155
198	0x3e0af04d	0.1356823
199	0x3e5b43a2	0.21412519
200	0xbfb26c47	-1.3939294
201	0x3f5d2ad0	0.8639345
202	0x3e6ccf55	0.23125966
203	0xbe5e3411	-0.2169955
204	0x3c86f00b	0.016471883
205	0x3fad9d3a	1.3563607
206	0xbe91be66	-0.28465575
207	0x3f73b5c0	0.95199203
208	0x3d045f7f	0.032317635
209	0x3f974cbf	1.1820296
210	0x3f2c4f63	0.67308635
211	0xbe6746df	-0.22585629
212	0x3fe01eb4	1.750937
213	0xbffd477e	-1.9787443
214	0xbf7602bf	-0.9609794
215	0xc004c17f	-2.07431
216	0x3f16ae22	0.58859456
217	0x3f89414d	1.0723053
218	0xbf5cda40	-0.86270523
219	0xbf0f6021	-0.56006056
220	0x3f6201f4	0.8828423
221	0x3f72fbfd	0.94915754
222	0x3f2c5bf5	0.67327815
223	0x3e979a6d	0.29610005
224	0xbfedd84e	-1.8581636
225	0x3e1d2598	0.15346372
226	0x3f083150	0.53200245
227	0x3f60dce4	0.8783705
228	0xbf31ab51	-0.69402033
229	0x3f20e39c	0.62847304
230	0xbde7d187	-0.11319261
231	0x3f437bdb	0.76360863
232	0xbf429f49	-0.760243
233	0xbfa9d8f0	-1.3269329
234	0xbf8b96d1	-1.09054
235	0xbede3daf	-0.43406436
236	0xbfa1170c	-1.2585158
237	0xbd88a903	-0.066728614
238	0xbd3804e8	-0.044926554
239	0xbf007392	-0.50176346
240	0x3e819f0e	0.25316662
241	0x3e8ed85d	0.27899447
242	0x3e2ebce7	0.17064248
243	0xbe29ba18	-0.16574895
244	0xbf5209f2	-0.82046425
245	0x3db36ace	0.08760606
246	0x3f39b8a3	0.7254736
247	0xbf4db65b	-0.8035638
248	0x3f27467a	0.65341914
249	0x3e164627	0.14675198
250	0x3e5c864a	0.21535602
251	0xbfbef567	-1.4918641
252	0x3f60b8f0	0.8778219
253	0xbf64137f	-0.8909225
254	0xbf669d41	-0.900837
255	0x3fa7422a	1.3067067

weight f4 [40, 40]
0	0xbe1c863c	-0.15285581
1	0xbd28daac	-0.041224167
2	0x3dba1a5a	0.090870574
3	0xbced4498	-0.028963372
4	0xbd5cb068	-0.05387917
5	0x3e007799	0.12545623
6	0xbd7a809e	-0.061157815
7	0x3c8738c8	0.016506568
8	0x3dd39c06	0.103324935
9	0xbd99093b	-0.07472464
10	0xbd8b1e4d	-0.06792889
11	0x3dcabb86	0.098990485
12	0x3db51a8c	0.08842954
13	0x3e1f17a7	0.15536366
14	0xbddbfc6c	-0.10741505
15	0xbe0dd247	-0.13849746
16	0xbd6bdc28	-0.057583004
17	0xbd784e16	-0.060621344
18	0xbc8950e0	-0.016762197
19	0x3d626858	0.05527529
20	0xbdf69248	-0.1203962
21	0x3d8d6940	0.069048405
22	0x3c4a5080	0.012348294
23	0x3defba7a	0.117054895
24	0x3dcc0ec2	0.09963752
25	0xbda0f05e	-0.078583464
26	0x3df826ce	0.121167764
27	0x3de758ea	0.11296256
28	0xbd2c0e7a	-0.042005993
29	0x3ccc6ea0	0.024955094
30	0xbe0a8716	-0.13528094
31	0xbcbba738	-0.022906885
32	0x3d809df8	0.0628013
33	0xba51e800	-0.0008007288
34	0xbe18ae41	-0.14910223
35	0xbe1e7312	-0.15473583
36	0xbe01cf04	-0.12676626
37	0xbdc9168c	-0.098187536
38	0x3da6a5ba	0.081370786
39	0xbe1b8dc4	-0.15190798
40	0xbdb1fdfd	-0.086910225
41	0x3df12b0a	0.11775787
42	0x3d5d6e60	0.05406034
43	0x3e0ef481	0.13960458
44	0x3e00b2ef	0.12568258
45	0xbe093a2a	-0.13401094
46	0xbde75790	-0.11295998
47	0xbdcf3bea	-0.101188496
48	0xbdc09ee1	-0.09405304
49	0xbc215a20	-0.009848148
50	0x3ca2a3f0	0.019853562
51	0x3d0a1bc0	0.03371787
52	0x3dc74e02	0.09731676
53	0xbdbb5438	-0.09146923
54	0xbd4c7c5e	-0.049923293
55	0x3cc43b78	0.023954138
56	0xbdcc1d26	-0.09966497
57	0xbdc776f8	-0.09739488
58	0x3df3e73e	0.1190934
59	0xbc096740	-0.008386433
60	0x3cb43a40	0.022000432
61	0xbd14283e	-0.03617119
62	0x3d9da902	0.07698251
63	0xbde6b521	-0.11265016
64	0x3c9773d8	0.018487856
65	0xbdd8e054	-0.10589662
66	0xbd26ad16	-0.04069241
67	0xbdb598d7	-0.088670425
68	0xbdef08c5	-0.116715945
69	0xbdac7707	-0.0842114
70	0x3de7a016	0.11309831
71	0xbd974ac4	-0.07387307
72	0x3e062bcd	0.13102646
73	0x3b877c60	0.0041346997
74	0x3e194345	0.14967068
75	0xbcf3bb10	-0.029752284
76	0xbe10c38a	-0.14137092
77	0x3e07ece9	0.13273968
78	0x3db52ae8	0.08846074
79	0xbd3eb5e4	-0.046560183
80	0x3ccee618	0.025256202
81	0x3b599300	0.003319919
82	0xbd144c08	-0.03620532
83	0x3d3a6970	0.04551071
84	0xbdf395e4	-0.11893824
85	0xbdb7672b	-0.089552246
86	0xbdc94a97	-0.0982868
87	0x3d6b320c	0.057420775
88	0xbd9d769f	-0.07688641
89	0xbd110d4e	-0.03541308
90	0x3d75e7a0	0.060035348
91	0xbd89b1b4	-0.06723347
92	0x3df00bbe	0.1172099
93	0xbd2fa130	-0.04287833
94	0xbdb72571	-0.08942688
95	0xbd55270a	-0.052039184
96	0x3de952b2	0.11392726
97	0x3dd348c2	0.10316612
98	0x3ca6a778	0.020343527
99	0xbd1749dc	-0.036935672
100	0xbdb2723e	-0.08713196
101	0xbe10c6a1	-0.14138271
102	0xbdc5d01f	-0.096588366
103	0x3db835f0	0.08994663
104	0x3cfa2258	0.030533955
105	0x3d5d716c	0.054063246
106	0x3d304350	0.043032944
107	0xbb83c920	-0.0040217787
108	0x3d90d14c	0.0707117
109	0xbda2a7a6	-0.07942133
110	0x3dfae22e	0.122501716
111	0xbdba820e	-0.09106837
112	0xbd1de802	-0.038551338
113	0xbe06ca74	-0.13163167
114	0x3e0b4209	0.13599409
115	0xbde924a6	-0.11383943
116	0x3da1cab4	0.07899991
117	0x3cedb348	0.029016152
118	0xbe0e68ed	-0.13907214
119	0xbd372944	-0.04471709
120	0x3d17df48	0.037078172
121	0x3e08d763	0.13363414
122	0x3d423e1c	0.047422513
123	0x3c788a00	0.0151696205
124	0x3df8c642	0.1214719
125	0x3d1dd614	0.03853424
126	0x3e167993	0.14694814
127	0x3d47245c	0.04861866
128	0x3d939bc6	0.07207446
129	0xbd3ec702	-0.046576507
130	0x3dd5ded6	0.10442893
131	0xbceaae30	-0.028647512
132	0x3e20cbb9	0.15702714
133	0xbda584a2	-0.08081938
134	0x3db2d1d8	0.08731431
135	0xbd63b6ba	-0.055594184
136	0xbdfbd88e	-0.12297164
137	0xbe01d2d1	-0.12678076
138	0x3da5909a	0.08084221
139	0xbc0f76e0	-0.008756369
140	0xbdfdc681	-0.12391377
141	0x3d04a8c8	0.032387525
142	0x3e1de41f	0.15419053
143	0xbd9b2cb1	-0.075768836
144	0xbdcbd1ee	-0.0995215
145	0x3ccbb7f8	0.024867997
146	0xbd6cc37e	-0.057803623
147	0xbca9a238	-0.020707235
148	0x3df588ba	0.11988969
149	0x3dd9142e	0.10599552
150	0xbe120545	-0.14259823
151	0xbdf43fbf	-0.11926221
152	0xbd9c8380	-0.07642269
153	0xbdf7d75e	-0.12101625
154	0x397d3400	0.00024147332
155	0xbdcbbdce	-0.09948312
156	0x3dbc31ba	0.09189172
157	0xbddd1570	-0.107951045
158	0x3c304a50	0.010759905
159	0x3e201139	0.1563157
160	0x3dcd2ed6	0.10018699
161	0xbdecd145	-0.115633525
162	0xbd9b45a9	-0.07581646
163	0x3dc42406	0.095771834
164	0x3e000501	0.12501909
165	0xbc3a5420	-0.011372596
166	0xbe139825	-0.14413507
167	0xbd4214a8	-0.04738298
168	0xbdc5e0e6	-0.096620366
169	0x3e121215	0.1426471
170	0x3dd67b26	0.104727075
171	0xbdcb93ff	-0.099403374
172	0x3d45ad88	0.048261195
173	0xbd7e930c	-0.062151954
174	0x3dbfc746	0.0936418
175	0x3e072b8b	0.13200204
176	0x3e03a4e7	0.12855874
177	0xbd9ffaea	-0.0781153
178	0xbd8d817b	-0.06909462
179	0x3ddf4676	0.10902111
180	0x3ddcf36a	0.10788615
181	0xbe17ca43	-0.1482325
182	0xbd2fa532	-0.042882152
183	0xbe154818	-0.14578283
184	0x3dcc7ade	0.099843726
185	0x3e0f0675	0.13967307
186	0xbd884a82	-0.06654836
187	0xbe1638a8	-0.1467005
188	0x3d00180c	0.031272933
189	0xbd95fecc	-0.07323989
190	0x3d4ef438	0.050525874
191	0x3cf94e30	0.03043279
192	0xbc8f39b0	-0.017483562
193	0xbde1520c	-0.11001977
194	0xbd02ccc0	-0.031933546
195	0x3b22c640	0.0024837404
196	0xbe00c894	-0.12576514
197	0xbda51f1b	-0.080625735
198	0x3c414980	0.011797309
199	0x3e02ffc3	0.12792878
200	0x3e19cd9b	0.15019839
201	0x3d8c7404	0.06858066
202	0xbd89809b	-0.06713983
203	0xbd82b41e	-0.06382011
204	0xbdcc43be	-0.09973858
205	0xbdcbe1ae	-0.09955154
206	0x3d1d16b4	0.03835173
207	0x3da5c01a	0.08093281
208	0x3d932c34	0.071861655
209	0xbb733700	-0.003711164
210	0x3d600f40	0.054702044
211	0xbd634fbe	-0.05549597
212	0x3de3bce2	0.11120011
213	0x3d8deef4	0.06930342
214	0x3d86c632	0.065807715
215	0x3de5e2c6	0.11224894
216	0x3db275e4	0.08713892
217	0xbe17c1ac	-0.14819974
218	0x3c8080a0	0.015686333
219	0x3dacfe00	0.08446884
220	0x3ddb4a52	0.10707535
221	0x3de90b4a	0.11379106
222	0xbb1f7940	-0.0024333745
223	0x3e0cdf8d	0.13757153
224	0x3d941bee	0.0723189
225	0x3da808b6	0.082047865
226	0x3c86e0c8	0.016464606
227	0xbe20194b	-0.15634649
228	0xbe14be62	-0.1452575
229	0x3d9ab174	0.07553378
230	0xbda8dff6	-0.08245842
231	0x3d9cd716	0.07658212
232	0x3cceaa68	0.02522774
233	0xbd5d0fd8	-0.053970188
234	0x3d25c6b8	0.040472716
235	0xbe1cbb5e	-0.1530585
236	0x3d0bc6ac	0.034125015
237	0xbdd4c2be	-0.103887066
238	0xbdf652e4	-0.12027529
239	0xbe2076bc	-0.15670294
240	0x3d73cc7c	0.059521183
241	0x3e05ec9b	0.13078539
242	0x3db5f6a6	0.08884935
243	0xbe14c94e	-0.14529917
244	0xbdc9ba0a	-0.09849937
245	0xbbf2fb00	-0.0074151754
246	0xbd317dd2	-0.043332882
247	0xbde027c0	-0.10945082
248	0xbd73eb94	-0.059550837
249	0xbe1ff91b	-0.1562237
250	0xbd12a616	-0.035802923
251	0xbd9809b3	-0.07423725
252	0x3e09155b	0.13387053
253	0xbe16d575	-0.14729865
254	0x3d23dfc0	0.040008307
255	0xbdb90fa7	-0.090361886
